runs/run2/runs-vit_b_32-flower102/demo-vit_linear/best_model.pth (torch, 315306 bytes, 2 tensors)

linear.weight f4 [102, 768]
000000 84 f3 53 3c 51 0b 07 bd 23 fa 12 bd c6 f0 a3 3d
       0.012936477 -0.032969777 -0.03588308 0.08004908
000010 59 70 64 ba 1c 7c 9e bc 16 00 2c 3d 02 df f6 bb
       -0.0008714251 -0.01934629 0.04199227 -0.007533909
000020 e8 d7 e2 3b bb 2f fd 3c 76 6f 07 3d c4 22 aa 3c
       0.0069227107 0.030906549 0.03306528 0.02076853
000030 e6 10 3d bb f2 54 00 bc 0e 58 e2 bc 97 f1 2a bc
       -0.0028849184 -0.007832753 -0.027629878 -0.010433576
000040 2e e0 32 bd d4 c8 b9 bc 53 8b 16 bd 83 42 06 bd
       -0.043670826 -0.02267877 -0.036753964 -0.032778274
000050 44 37 05 bd 81 0d 6c 3d 9c b5 01 3c 42 7f 48 bc
       -0.03252341 0.057630066 0.007916834 -0.012237372
000060 55 d0 76 bc ab 93 b8 3c 5c fb 86 3c 6d de b4 bc
       -0.015064319 0.022531351 0.01647728 -0.022078717
000070 b2 4a 25 3d 62 ba 59 bd 3f f4 f2 3b ab 45 31 3d
       0.040354438 -0.053156264 0.0074143703 0.04327933
000080 d9 65 53 3d c2 a4 55 bd 78 b7 3f bd 20 7e b1 bd
       0.0516108 -0.05215908 -0.04680583 -0.086666346
000090 0a 11 fa 3b 31 f9 8d bc 31 b8 9e 3c a8 56 2f 39
       0.0076314257 -0.017330738 0.019374939 0.00016721583
0000a0 f3 0b c0 bc 52 4e 56 3c 3d 83 77 3b e9 2e 51 bb
       -0.023443198 0.013080196 0.0037767433 -0.003191883
0000b0 5c e0 21 3d 08 31 33 3d ab eb 0c 3d a4 85 8c 3c
       0.039520606 0.04374793 0.034404438 0.017153569
0000c0 d9 29 80 bb 93 d0 b2 bb 33 57 ea 3b e9 99 90 3b
       -0.0039112386 -0.005456993 0.0071515082 0.004412879
0000d0 04 93 20 bc 94 53 58 bc f5 0d 2c bc 25 1b c5 3c
       -0.009800676 -0.01320352 -0.0105013745 0.024060795
0000e0 ff ef 5f 3c 2d 88 d1 3c 8e 8f cb bb 88 2c bb bb
       0.013668059 0.025577629 -0.0062121814 -0.0057120956
0000f0 02 1b 9e 3a a8 b8 cf bc 01 1a c8 bd 5e bc 8d bc
       0.0012062492 -0.025356606 -0.09770585 -0.017301735
000100 71 ed 22 bd 9c a9 06 3c 7a de 5a 3c af e5 4d 3c
       -0.039777223 0.008219149 0.013358707 0.012566968
000110 16 cc a5 ba 22 2b 53 bb 93 f8 25 3d 55 d1 d2 3b
       -0.0012649323 -0.0032221754 0.040520262 0.0064336457
000120 58 ae d5 3b 3c d9 87 b8 31 ec e5 39 38 c0 0b bb
       0.0065210275 -6.477765e-05 0.0004385426 -0.0021324288
000130 31 6a ab bc 6a 6c dd 3c 1e 93 8c 3c a3 cd 29 bd
       -0.02092466 0.027029235 0.017159995 -0.041455876
000140 fa 5c fd 3c 42 84 0e 3c ec 81 eb 3a ef ff 4c 3b
       0.030928124 0.008698525 0.0017967797 0.0031280478
000150 ca d4 eb bb 6b 6a b6 3c 47 6d c3 3c 25 53 0a bd
       -0.0071969973 0.02226754 0.023855818 -0.0337707
000160 2f 9d ba bc 8d 85 a3 bc 9e f7 b0 bc 9a 26 98 bc
       -0.02278003 -0.019961143 -0.021602448 -0.018573094
000170 8e 26 60 bc 70 93 17 bd 8e a7 96 bc e0 63 05 bd
       -0.013681067 -0.03700584 -0.018390443 -0.03256595
000180 8a 16 34 ba 7f 35 59 3d c2 ad 2e bd 44 1c 3c bc
       -0.00068698137 0.053029533 -0.042646177 -0.011481348
000190 dc 93 66 3d 97 0b c0 3c 62 c6 db bc 40 3f 61 bb
       0.056293353 0.023443026 -0.026827995 -0.0034369975
0001a0 73 3c 38 3d 48 b6 b0 bc f8 84 db 3c 8f 5e eb 3b
       0.044979524 -0.021571293 0.026796803 0.007182903
0001b0 2b ed 30 3a 9a b4 46 bb 9f e4 11 bd d0 4b 06 3d
       0.0006749208 -0.003032005 -0.03561842 0.032787144
0001c0 b8 b4 9e 3a 07 3d 63 3d b0 6e 68 bb 69 0f 5b 3c
       0.0012108302 0.055478122 -0.0035466366 0.013370373
0001d0 6b a2 a3 bc de fc 7e bc 34 45 ce 39 1e c6 7b 3c
       -0.019974908 -0.015563218 0.00039342942 0.015367059
0001e0 af d2 ee bc 71 4c 89 3c 45 a7 c3 3c 5b 62 ac 3c
       -0.029153196 0.016760083 0.023883471 0.021042993
0001f0 94 7d 0b bd 9c b3 18 bc 8a 94 b0 bc bf 3f 47 bb
       -0.034055308 -0.009320166 -0.021555204 -0.0030402986
000200 cf 9d 03 bc 66 13 1c bb 22 c8 cc bc 59 0b 64 ba
       -0.00803323 -0.0023815273 -0.024997775 -0.00086992007
000210 96 ed cd 3c 3c b9 cb bc 54 63 ac 3c 61 2f 2f bc
       0.025137704 -0.0248686 0.021043457 -0.010692448
000220 71 8f fe b8 5f c3 fe 39 88 1e 78 bc 5d 19 ce 3c
       -0.00012138382 0.00048592218 -0.015143998 0.025158579
000230 e9 6d ba 3b 85 49 e7 3a 70 4d 8c b8 d5 d8 f2 ba
       0.005689372 0.0017645812 -6.690144e-05 -0.0018527756
000240 7e 55 a6 3c e7 e8 1c 3d 97 05 7d 3c 94 57 14 3d
       0.020304438 0.03830805 0.015443227 0.036216334
000250 01 0f 26 3d 6f 78 15 bd 80 ff eb bb f1 15 8c 3c
       0.040541653 -0.036491808 -0.007202089 0.017100306
000260 cc 2f b8 bb f8 28 c7 bc b7 7e a2 3c 73 fd 1d 3c
       -0.005620932 -0.024311528 0.019835813 0.0096429465
000270 dd df fc 3b 26 e2 dd bb da 79 0b 3d c7 c1 9c bc
       0.0077171163 -0.0067713438 0.034051754 -0.019135369
000280 b3 9f 4f bb f3 29 ff 3c 90 19 24 3c f7 19 a1 39
       -0.0031680882 0.031147933 0.01001586 0.00030727658
000290 dd 0e 3a 3c 36 a0 cf 3a 53 d0 3f bc 5f 8e 1b 3d
       0.011356083 0.0015840593 -0.011707383 0.037977573
0002a0 94 17 ef bc 1b 3f 39 bc ae 21 97 bb b6 7d 7a bd
       -0.029186048 -0.011306549 -0.004612169 -0.061155044
0002b0 ad 6b 8f 3b c9 92 88 3c 64 a7 13 3d 13 bc 39 3c
       0.0043768496 0.016671555 0.036048308 0.011336344
0002c0 4c cc 89 3c 86 4c 04 bb 7b ef e7 39 7e c9 01 3d
       0.01682105 -0.0020187213 0.0004423818 0.0316863
0002d0 3d fe d2 3c 90 2f 5a 3c 3f d7 6d 3c 47 61 b4 3c
       0.025755996 0.013317004 0.014516651 0.022019042
0002e0 fe 7d 01 bc 74 47 d7 bb 33 de d2 3c fa b8 ef bc
       -0.007903574 -0.006569797 0.025740718 -0.029263008
0002f0 2d 0a 7c bc b3 4d c1 3c 95 9a 1a 3c 43 72 00 3d
       -0.0153832855 0.02359662 0.009436269 0.03135897
000300 ff 0e 15 bd e1 63 c8 bb 88 8d 3e 3d 28 24 7c 3c
       -0.036391255 -0.006115422 0.046521693 0.01538948
000310 fd 06 34 bc 01 00 a3 3c ef 09 ce bc 9e 7c 8b 3b
       -0.010987994 0.019897463 -0.025151221 0.004256799
000320 c1 06 12 bc e8 6f 29 3d b5 a4 d6 3b 14 7d 0d bd
       -0.008912743 0.041366488 0.0065503963 -0.034543112
000330 ac 8a 40 bd 41 89 49 bb af b6 47 bb dc 9b c6 3a
       -0.047007248 -0.0030751976 -0.0030473878 0.0015152651
000340 30 78 bd 3b ef 9d 29 3d 84 a8 a1 3b 7e b4 f5 3c
       0.0057821497 0.041410383 0.0049334187 0.029993292
000350 7e 82 c0 3b d9 12 af 3c 6a f5 65 3c 1b 42 18 3d
       0.005874931 0.021371292 0.014035562 0.037172418
000360 c9 c2 f9 3c 6f 39 5c 3b db f9 15 bc 1a 7e 4f 3c
       0.030488389 0.003360357 -0.0091538085 0.012664342
000370 e4 a2 a6 3c 62 03 23 3d 2d a8 22 3a d2 f0 7b 3c
       0.020341344 0.039798148 0.000620487 0.01537724
000380 87 0c 59 3c 3f 3f ac bc 57 b1 80 bc ab 29 49 3d
       0.013247616 -0.021026252 -0.015709562 0.049112003
000390 91 09 53 3c 8a fa 94 bc 84 32 1d bd ee 0d c3 3c
       0.012880699 -0.018185873 -0.038378254 0.023810353
0003a0 6e c8 c3 3c 11 73 d1 3b 35 f0 c0 3c 43 2c ed bb
       0.023899283 0.006391891 0.02355204 -0.0072379424
0003b0 c5 f9 37 bb be b2 66 3b 11 8b 7c 3b 2f e9 fc bc
       -0.0028072458 0.0035201753 0.0038535038 -0.03087291
0003c0 8d 60 2b bd 17 37 5d bc a2 ec 2f bc 85 81 10 3c
       -0.041840125 -0.013501904 -0.01073757 0.008819942
0003d0 41 80 c2 3c d5 c7 41 bd 1e ac 75 ba 03 d3 3e bd
       0.023742797 -0.047309715 -0.0009371656 -0.046587955
0003e0 37 94 1f bc 63 1f 01 bd dc 24 80 bb e3 d9 cf 3c
       -0.009739927 -0.031524073 -0.003910644 0.025372451
0003f0 7c 0f 2b bc 53 9c 99 bb 77 60 ff bb 71 40 ed bc
       -0.0104407035 -0.0046878248 -0.007793482 -0.028961392

linear.bias f4 [102]
000000 16 a2 69 bc 49 b1 b1 3c 82 ec 0d 3c b7 40 3f 3b
       -0.014259836 0.021690981 0.008662345 0.002918286
000010 d9 2c 4f bc 57 d6 3e 3c af 33 9e bb d4 08 af 3c
       -0.01264497 0.011647782 -0.0048279385 0.021366514
000020 e1 b0 19 bc 99 3f 02 3c 93 45 1a bc 09 30 79 3c
       -0.00938055 0.007949733 -0.009416002 0.015209206
000030 eb be 49 3c 63 a4 e5 3c 2c c5 a4 3c fe 4e 7d 3c
       0.012313585 0.028032487 0.02011355 0.015460728
000040 01 53 3b 3b 11 f6 00 bd 95 37 cb bb d5 27 a8 3c
       0.002858341 -0.031484667 -0.0062016943 0.020526806
000050 03 67 03 3b e0 70 2c 3c 3e b7 ca 3c f2 94 38 3c
       0.0020050413 0.010524958 0.02474558 0.01126598
000060 05 be d0 3b 64 a3 10 bb cc 46 27 3c 66 f3 41 3c
       0.0063703083 -0.0022070045 0.01020975 0.011837816
000070 af bf 13 3d 9c f5 75 bc d1 c1 99 3c 63 2b 8f bc
       0.036071476 -0.015012171 0.018769177 -0.017476743
000080 02 24 ad 3b b6 a6 78 bb ab fd 4f 3c b7 21 3b bc
       0.0052838335 -0.0037941164 0.0126947565 -0.011421612
000090 cc c1 c7 ba 77 d9 28 3b 0a 3b 0c bc 6e 80 e6 3b
       -0.0015240251 0.0025764385 -0.008558998 0.007034353
0000a0 cc 70 95 3c 31 c8 75 3b ea 56 5f bc 45 04 60 3c
       0.018242262 0.0037503357 -0.013631562 0.013672893
0000b0 83 84 d5 3b b0 ed 9f bc 9b 27 18 3a 28 e0 e3 bb
       0.006516041 -0.019522518 0.00058042415 -0.0069542117
0000c0 59 2c 0b 3d 2b 3b 0a 3c e8 81 df bc be 1e 1b bc
       0.03397784 0.008436958 -0.027283624 -0.009467779
0000d0 6f c8 fb bb c3 25 42 3c 2d 28 8d bb bd 76 5e bc
       -0.0076838057 0.011849823 -0.004307768 -0.013578114
0000e0 5f 81 68 bb 65 14 e6 bc c9 64 98 bc 59 ad d1 bc
       -0.0035477502 -0.028085897 -0.018602746 -0.025595354
0000f0 56 5f b6 bb 6a be cf bc c8 7d a5 3a 73 fe 0e bc
       -0.005565564 -0.025359351 0.0012625987 -0.008727658
000100 b1 c3 94 bc 2f d4 4d bb db 4c 8b 3b 25 79 aa 3c
       -0.01815972 -0.003140699 0.0042511052 0.02080972
000110 9d 8e 33 bb 9f df fe 3a 96 ca 51 bc 4a 3e 11 bd
       -0.0027398237 0.0019445306 -0.012804648 -0.035459794
000120 79 20 95 3c 84 0b 1e bb d9 6f 47 3c 5c d3 8b 3b
       0.01820396 -0.002411575 0.012172663 0.0042671394
000130 1f 46 18 3c 88 bc 5c bc 6c 38 80 3c 6d 8b d5 3c
       0.009294062 -0.013472684 0.015651904 0.02606746
000140 c4 e6 04 bc 90 20 9c bc a6 20 11 bd 51 54 05 bc
       -0.008111659 -0.019058496 -0.035431527 -0.008137778
000150 23 b1 90 3a df 11 b6 bc e9 73 a5 3b 92 20 4b ba
       0.0011039119 -0.022225318 0.005049218 -0.0007748689
000160 13 db 89 bc cc dc f3 3b ac 9f 0c 38 13 aa 56 3c
       -0.016828096 0.0074420925 3.3527307e-05 0.013102072
000170 51 59 47 3c e1 58 66 3c d7 0e 3b ba 73 29 84 bc
       0.012167291 0.014059276 -0.0007135695 -0.016133046
000180 10 e3 f9 3b 05 8e 01 bd 5f 21 7d 3b 0c d3 31 bc
       0.007625945 -0.03162958 0.0038624627 -0.01085354
000190 d7 bf 2a 3c 5e 0e b7 3a
       0.010421715 0.0013966074
